…
"elapsed":419,"user":{"displayName":"Sophia Bronson","photoUrl":"https://lh3.googleusercontent.com/a-/AOh14GhvalkR5blIu8r-_DkfWHqUyBadrsrCdxNvt4CiKw=s64","userId":"10530334791637775493"}},"outputId":"f2dab14d-23b2-4aa2-d90c-f5f090e1d44b"},"source":["model.summary()"],"execution_count":null,"outputs":[{"output_type":"stream","text":["Model: \"sequential\"\n","_________________________________________________________________\n","Layer (type)                 Output Shape              Param #   \n","=================================================================\n","conv2d (Conv2D)              (None, 148, 148, 32)      896       \n","_________________________________________________________________\n","max_pooling2d (MaxPooling2D) (None, 74, 74, 32)        0         \n","_________________________________________________________________\n","conv2d_1 (Conv2D)            (None, 72, 72, 64)        18496     \n","_________________________________________________________________\n","max_pooling2d_1 (MaxPooling2 (None, 36, 36, 64)        0         \n","_________________________________________________________________\n","conv2d_2 (Conv2D)            (None, 34, 34, 128)       73856     \n","_________________________________________________________________\n","max_pooling2d_2 (MaxPooling2 (None, 17, 17, 128)       0         \n","_________________________________________________________________\n","conv2d_3 (Conv2D)            (None, 15, 15, 128)       147584    \n","_________________________________________________________________\n","max_pooling2d_3 (MaxPooling2 (None, 7, 7, 128)         0         \n","_________________________________________________________________\n","flatten (Flatten)            (None, 6272)              0         \n","_________________________________________________________________\n","dense (Dense)                (None, 512)               3211776   \n","_________________________________________________________________\n","dense_1 (Dense)              (None, 1)                 513       \n","=================================================================\n","Total params: 3,453,121\n","Trainable params: 3,453,121\n","Non-trainable params: 0\n","_________________________________________________________________\n"],"name":"stdout"}]},{"cell_type":"code","metadata":{"id":"9OhBXYSuNy6n"},"source":["from keras import optimizers\n","\n","model.compile(loss='binary_crossentropy
…
